model/model.pth (torch, 903473 bytes, 8 tensors)

feature.0.weight f4 [32, 1, 3, 3]
-0.5322256 -0.082770415 -1.1563368 0.46197566 -0.15958957 -0.54450023 -1.2327579 -0.1337266
0.12016835 -0.26319644 -0.12984365 0.21114217 -1.8822907 -0.21341166 0.32068267 -0.6587501
-0.20336555 0.4542844 -1.5086733 0.026031537 -0.8328972 -0.3428668 -1.6114132 -0.28236294
-1.8383465 -0.004477041 0.77600473 0.0937519 0.40604672 0.49245554 -0.26384607 0.20730565
-0.18456607 -1.2868726 -0.60798454 -1.1828507 -1.9095156 -0.2503946 -0.14481997 0.13101676
-1.4622853 -0.7901717 0.42590347 -0.43321124 -0.91967577 0.2394295 -1.1977472 -1.9524032
-0.07758345 -1.723605 -2.8875039 -0.6271897 -1.6783924 -2.0792325 0.004504883 -0.71104634
-0.41699055 -0.32979393 -0.5563346 0.44108647 -0.28339836 -0.39419103 -0.585079 -0.2541606
-0.023281818 0.024401318 0.041442543 0.027843826 0.08862015 -0.09757094 0.026491132 -0.34515935
-2.2019527 1.2930723 -2.7786953 -1.2187312 0.3287802 -2.0900755 -0.3003577 -0.1650877
-0.12687369 0.11422782 -0.7151457 -0.27556133 -0.7324817 -0.5301965 0.44735348 -1.3547794
-0.8381701 0.16209505 -0.422822 0.15452623 -3.0062807 -0.7222742 1.7425915 -0.1754685
-0.70801735 -0.69840807 0.46432045 0.02558804 -1.1696322 -3.955479 0.5229834 0.021036228
-1.6900184 0.6831327 -0.8504371 -1.1617568 -0.51687163 0.28564236 0.63242114 -0.16479824
-1.639263 -0.673635 1.0617347 -0.7776845 0.61484075 -0.083424404 -0.017833086 0.0052811773
-0.36252394 -0.2718649 0.19256963 -0.21771096 -0.46456546 -0.23028745 0.60345393 0.3077862
-0.99254763 0.46750823 -0.74580157 -5.103362 -1.1818784 -3.4117818 -2.9925616 -0.39597
-1.8866358 -1.3372682 -2.5247219 1.0292668 -1.564718 -2.8366282 0.1203895 -0.21422166
-0.73686725 -0.27043 -0.068963036 -0.56816983 -0.33489162 -0.03606495 -0.17526388 -0.003540938
-0.48688176 -0.16752365 -0.42034802 -1.2343379 -0.40393713 0.053713128 0.08995127 -1.2799315
-1.4139396 -0.26997298 -0.04280276 0.6262018 0.2513086 -0.59071964 -0.07619007 0.58757985
-0.64899784 -0.18757443 0.84235036 -0.17690277 -0.3912028 0.010254978 -0.45947388 0.27357098
0.06832052 0.13444959 -0.13438542 -0.5695761 -1.3022289 0.6504308 0.79084885 -1.3529509
-1.7873363 -0.020524168 -0.03550967 0.26489973 -1.1889548 -0.5839066 -0.09790831 -0.15806931
-0.3770896 0.35860685 -0.38399205 0.08725265 -0.5328964 -0.41160876 -0.52639 -0.67369694
0.16440079 -0.6099842 -0.18916754 -0.80124146 0.6272077 -0.79104424 -0.64055544 -0.6107664
-0.46212107 -0.69074136 -0.46745512 -0.65314555 0.14883827 -0.23641445 0.07118007 0.06196328
-0.2042478 -0.31203723 0.09233593 -0.26346573 0.01851683 0.20924827 0.13366547 -0.06473466
-0.025412347 0.16463415 -0.1059992 -1.1976081 0.22689334 0.28779662 -0.3819156 -0.7374105
0.23855953 0.45451108 -1.1762644 0.12286892 0.47215706 0.4075824 0.6773732 -1.1008081
0.49502963 -0.7011941 -1.2857193 -1.1845202 -0.5913176 -0.0045173164 -0.5889394 -0.2997726
0.2985542 -1.7146511 -1.9920461 -0.247603 0.015581285 0.03153563 0.15192914 -0.53163
00000000: f03f 08bf 8983 a9bd d802 94bf 1388 ec3e
00000010: 736b 23be 5e64 0bbf 03cb 9dbf a0ef 08be
00000020: d31a f63d afc1 86be bcf5 04be a735 583e
00000030: e7ee f0bf 9688 5abe 8530 a43e d9a3 28bf
00000040: 0f3f 50be f797 e83e 351c c1bf 1740 d53c
00000050: c038 55bf 3d8c afbe ca42 cebf e091 90be
00000060: f04e ebbf 24b4 92bb 3fa8 463f ff00 c03d
00000070: 5be5 cf3e 2223 fc3e d516 87be ef47 543e
00000080: e3fe 3cbe 3eb8 a4bf e0a4 1bbf a767 97bf
00000090: 026b f4bf b933 80be b04b 14be 4229 063e
000000a0: 2a2c bbbf b148 4abf 0510 da3e ddcd ddbe
000000b0: df6f 6bbf 022d 753e c84f 99bf 59e8 f9bf
000000c0: 12e4 9ebd 179f dcbf ddcc 38c0 818f 20bf
000000d0: 90d5 d6bf 2512 05c0 b39d 933b 2207 36bf
000000e0: c97f d5be c0da a8be f26b 0ebf 16d6 e13e
000000f0: 9719 91be 68d3 c9be bdc7 15bf 5721 82be
00000100: 83b9 bebc 46e5 c73c a8bf 293d bc18 e43c
00000110: 7b7e b53d 46d3 c7bd ee03 d93c bab8 b0be
00000120: cbec 0cc0 6583 a53f 25d6 31c0 62ff 9bbf
00000130: e155 a83e ccc3 05c0 7cc8 99be c00c 29be
00000140: 2deb 01be 46f0 e93d ca13 37bf 6016 8dbe
00000150: ec83 3bbf f5ba 07bf 840b e53e 6969 adbf
00000160: 5192 56bf 3ffc 253e 207c d8be 203c 1e3e
00000170: e766 40c0 f6e6 38bf 3d0d df3f 04ae 33be
00000180: a040 35bf dfca 32bf 69bb ed3e 029e d13c
00000190: 82b6 95bf 9126 7dc0 3de2 053f 2b54 ac3c
000001a0: 8652 d8bf c9e1 2e3f 3fb6 59bf 72b4 94bf
000001b0: b351 04bf b73f 923e 5ae6 213f dfc0 28be
000001c0: 5fd3 d1bf 5873 2cbf ece6 873f 5516 47bf
000001d0: 3466 1d3f 6ada aabd b116 92bc ba0d ad3b
000001e0: bd9c b9be e031 8bbe f930 453e 9fef 5ebe
000001f0: 86db edbe 79d0 6bbe f57b 1a3f 2796 9d3e
00000200: 9a17 7ebf 3d5d ef3e daec 3ebf be4e a3c0
00000210: cb47 97bf a25a 5ac0 2186 3fc0 94bc cabe
00000220: 487d f1bf 9b2b abbf 0b95 21c0 04bf 833f
00000230: ae48 c8bf 518b 35c0 c58e f63d ec5c 5bbe
00000240: 55a3 3cbf cd75 8abe 7e3c 8dbd 9473 11bf
00000250: ea76 abbe d7b8 13bd 6078 33be 150f 68bb
00000260: 9148 f9be 528b 2bbe db37 d7be c9fe 9dbf
00000270: d9d0 cebe 4c02 5c3d 5f38 b83d ccd4 a3bf
00000280: f9fb b4bf e639 8abe f251 2fbd c34e 203f
00000290: 85ab 803e 6739 17bf 8a09 9cbd a26b 163f
000002a0: b924 26bf 8313 40be 46a4 573f 0026 35be
000002b0: bc4b c8be 7f04 283c 2940 ebbe 7f11 8c3e
000002c0: a1eb 8b3d 27ad 093e 559c 09be bdcf 11bf
000002d0: 70af a6bf a282 263f 1275 4a3f 7f2d adbf
000002e0: 70c7 e4bf 4d22 a8bc 9672 11bd f0a0 873e
000002f0: ac2f 98bf e77a 15bf 2784 c8bd ecdc 21be
00000300: e311 c1be 519b b73e 9b9a c4be 84b1 b23d
00000310: e66b 08bf 62be d2be 7fc1 06bf 6777 2cbf
00000320: ae58 283e ed27 1cbf 23b5 41be 291e 4dbf
00000330: af90 203f e081 4abf 71fb 23bf 305b 1cbf
00000340: 229b ecbe 6dd4 30bf 4756 efbe 8c34 27bf
00000350: 0f69 183e a116 72be dbc6 913d 35cd 7d3d
00000360: 5626 51be 58c3 9fbe 9f1a bd3d fbe4 86be
00000370: 9bb0 973c 2e45 563e 9adf 083e 9b93 84bd
00000380: 8e2d d0bc db95 283e 1c16 d9bd 394b 99bf
00000390: ba56 683e 145a 933e 718a c3be efc6 3cbf
000003a0: f348 743e adb5 e83e d58f 96bf b3a2 fb3d
000003b0: 92be f13e a4ae d03e 5468 2d3f 48e7 8cbf
000003c0: 8674 fd3e 7581 33bf 7392 a4bf 5c9e 97bf
000003d0: 9760 17bf ff05 94bb bcc4 16bf cb7b 99be
000003e0: 19dc 983e b079 dbbf 5efb febf a48b 7dbe
000003f0: a548 7f3c 812b 013d 5093 1b3e e718 08bf

feature.0.bias f4 [32]
-0.53605074 -0.98752445 -0.03499477 -0.18493506 0.21604568 -0.2433327 -0.45101908 -0.21832618
-0.31147045 -0.62590826 -0.64281577 -1.2766546 -1.7479432 -0.20228487 -0.122706085 -0.93320316
-0.5864617 -0.6898979 -1.0992675 -0.37750113 -0.12625569 -0.39341936 -0.93253845 -0.2896834
-0.39071634 -1.2422745 -0.75851953 -0.33539915 -0.2276109 -0.4018107 -0.7133954 -0.19195111
00000000: 9f3a 09bf 67ce 7cbf ad56 0fbd 9e5f 3dbe
00000010: 143b 5d3e 352c 79be f9eb e6be e690 5fbe
00000020: 0e79 9fbe 863b 20bf 938f 24bf 6b69 a3bf
00000030: 9abc dfbf c423 4fbe 544d fbbd 67e6 6ebf
00000040: 5b22 16bf 269d 30bf ccb4 8cbf d447 c1be
00000050: 2c49 01be 436e c9be d7ba 6ebf 6251 94be
00000060: f90b c8be da02 9fbf 562e 42bf 70b9 abbe
00000070: d512 69be 22ba cdbe 15a1 36bf d58e 44be

feature.3.weight f4 [64, 32, 3, 3]
-0.5578138 0.78552055 -0.11323148 -0.7160582 0.0736132 0.39474043 0.17571883 0.06817609
-0.041995455 0.38790536 0.18342048 0.34327656 -0.48946962 0.03420504 -0.08385176 -0.53577715
-0.52540284 -1.0431479 -0.28257993 0.29432324 0.22532293 0.23160613 0.6712798 -0.14764223
1.0722431 -0.07221773 -3.3831227 0.42003283 -0.21246517 -1.0742971 -0.112276874 -0.9599695
0.121012226 -0.78417647 -0.29284984 0.766734 0.42207855 0.6955165 0.7383473 -0.71423995
-0.27051738 -0.49737495 -2.0583138 -2.3790903 -0.34381562 -0.61541367 -1.392731 0.01138797
0.03201562 0.042918753 -0.21581306 0.03166675 0.5419648 0.1867209 0.07591667 0.14434105
-0.097554214 -0.18921772 -0.21458352 -0.261285 -0.110688515 -0.38466382 -0.0805779 -0.19853999
-0.0736458 -0.06296827 -0.08137044 0.06794169 0.03592788 0.1969893 0.14763084 -0.032057915
-0.13245311 -0.021888023 0.80025816 0.11626378 -0.098164305 -1.9846547 -0.9696106 -0.9451198
-0.36931756 0.21468218 0.037462812 -0.72159094 -0.2735053 -0.59314996 -0.33531702 -0.09400927
-0.6094642 -0.35568735 0.5633994 0.21762823 0.55832696 -0.16194502 0.48150927 0.020239541
-0.4642132 -0.60551983 0.21202393 -0.30794415 0.67134106 0.61317885 0.42122766 -0.12388927
0.13549739 -0.49935678 -0.22047022 -1.3499538 0.055487156 -0.22756058 -0.020323517 0.9704852
-0.48979244 -0.5209687 -1.7974482 -0.28565696 0.7400903 0.11646345 -0.0065043387 -0.23127688
-0.16279048 -0.4222275 -0.10153433 -0.24736635 -0.3171893 0.16219306 -0.25123644 -1.0050973
-0.9203768 -0.6271551 0.22522101 0.13885558 0.37620935 0.88206625 0.30532348 -0.88330716
-0.3749828 -0.055759136 0.7561868 0.11878887 0.41358873 0.39910105 -0.15202366 -1.5000015
0.08850191 -0.6475265 -0.70534956 -0.05959744 -0.19124188 -0.1501643 -0.37046543 0.4533296
-0.3575102 0.6482627 0.16415381 0.38710994 -0.07307373 -1.209495 -0.34773728 0.4365381
-1.0963145 -0.33358732 0.35804436 0.81375426 0.46138495 0.102165066 -0.41305858 -0.7771081
-0.88542396 -0.7312084 -0.23652098 -0.23956993 -0.026227882 0.0812553 -0.024968045 0.1080823
-0.050664738 0.5179427 0.1742717 -0.26045185 0.5117044 0.69618016 -0.06268468 0.028166343
-1.2664038 -2.3700655 -1.7322503 -5.473286 -0.6691273 0.16924536 0.05442167 -0.018685697
-0.0908187 0.10499275 0.14571753 0.3490901 0.12400322 -0.025604047 0.07414236 0.10270814
-0.25509796 -1.0068084 -0.13237244 0.2500427 -0.13348883 -0.7531069 0.27735588 0.17048264
-0.22927898 -0.23127025 0.29588297 -0.19989799 0.12783834 0.71569777 0.16161449 -0.3361645
-0.14056195 -0.09894761 -0.20706719 0.055870593 0.11615408 0.17794214 0.3626325 0.18137585
-0.16474108 0.0315259 0.6463184 0.47882518 -0.45378408 -0.13282746 0.04584583 -0.5101777
0.22063875 -0.056435443 -0.91843677 0.5094884 -0.16815138 0.038099576 0.046235707 0.24840665
0.5015491 0.118311375 0.3353648 0.5783867 0.40338582 -0.19470097 -0.8738376 -0.648942
-1.3063084 -0.4857652 -1.930539 -1.272849 0.0070059765 0.36186236 -0.43911105 -0.029800313
00000000: e3cc 0ebf e017 493f e8e5 e7bd 974f 37bf
00000010: 84c2 963d 6b1b ca3e a3ef 333e e89f 8b3d
00000020: 6d03 2cbd 889b c63e 94d2 3b3e f2c1 af3e
00000030: c39b fabe 961a 0c3d 79ba abbd b128 09bf
00000040: cd80 06bf df85 85bf 51ae 90be 89b1 963e
00000050: 0ebb 663e 282a 6d3e fed8 2b3f 862f 17be
00000060: 433f 893f e4e6 93bd 1585 58c0 8b0e d73e
00000070: 7890 59be 9182 89bf 6bf1 e5bd 90c0 75bf
00000080: 42d5 f73d cabf 48bf 6af0 95be ae48 443f
00000090: ae1a d83e 5f0d 323f 5404 3d3f 6ed8 36bf
000000a0: 4181 8abe eea7 febe 6abb 03c0 0443 18c0
000000b0: 9a08 b0be c08b 1dbf 0245 b2bf 9c94 3a3c
000000c0: d022 033d 93cb 2f3d 19fe 5cbe feb4 013d
000000d0: 35be 0a3f c333 3f3e 337a 9b3d 24ce 133e
000000e0: 81ca c7bd 4ac2 41be c8bb 5bbe 26c7 85be
000000f0: a9b0 e2bd a8f2 c4be 0706 a5bd 114e 4bbe
00000100: 9cd3 96bd 82f5 80bd 8ca5 a6bd 0325 8b3d
00000110: 1d29 133d 90b7 493e 8a2c 173e 294f 03bd
00000120: caa1 07be 834e b3bc b8dd 4c3f b41b ee3d
00000130: 5e0a c9bd 2a09 febf 6638 78bf 5ff3 71bf
00000140: 3117 bdbe a5d5 5b3e 9b72 193d 2fba 38bf
00000150: e308 8cbe add8 17bf acae abbe ef87 c0bd
00000160: d905 1cbf a71c b6be f13a 103f efd9 5e3e
00000170: 84ee 0e3f ead4 25be 6288 f63e 65cd a53c
00000180: 5aad edbe 5903 1bbf cd1c 593e dbaa 9dbe
00000190: 02dd 2b3f 4af9 1c3f 27ab d73e a8b9 fdbd
000001a0: d4bf 0a3e b1ab ffbe f2c2 61be 49cb acbf
000001b0: 8046 633d a405 69be 817d a6bc b871 783f
000001c0: 13c6 fabe 345e 05bf c812 e6bf a141 92be
000001d0: 8f76 3d3f 6484 ee3d 5922 d5bb d9d3 6cbe
000001e0: 8cb2 26be 342e d8be 3bf1 cfbd 9b4d 7dbe
000001f0: a366 a2be f015 263e 10a2 80be 07a7 80bf
00000200: d09d 6bbf 3d8d 20bf 56a0 663e 2830 0e3e
00000210: 839e c03e 18cf 613f 5c53 9c3e 6b20 62bf
00000220: bffd bfbe b163 64bd 7595 413f 9447 f33d
00000230: e7c1 d33e f956 cc3e 17ac 1bbe 0d00 c0bf
00000240: 7d40 b53d 4cc4 25bf ca91 34bf 721c 74bd
00000250: e9d4 43be acc4 19be a5ad bdbe d11a e83e
00000260: 940b b7be 8bf4 253f f017 283e 4633 c63e
00000270: aea7 95bd bbd0 9abf 9f0a b2be ec81 df3e
00000280: 0954 8cbf f5cb aabe 9751 b73e 3352 503f
00000290: a63a ec3e eb3b d13d 6a7c d3be 8ef0 46bf
000002a0: 25ab 62bf 7930 3bbf 8e32 72be d251 75be
000002b0: dbdb d6bc 2e69 a63d c989 ccbc 415a dd3d
000002c0: d485 4fbd e597 043f 4874 323e f259 85be
000002d0: 0fff 023f dd38 323f d360 80bd 1abd e63c
000002e0: 8519 a2bf 27af 17c0 61ba ddbf 2925 afc0
000002f0: ed4b 2bbf a84e 2d3e 42e9 5e3d bf12 99bc
00000300: 28ff b9bd 7006 d73d fa36 153e f0bb b23e
00000310: 66f5 fd3d 94bf d1bc f3d7 973d a558 d23d
00000320: 339c 82be 19df 80bf a48c 07be 9905 803e
00000330: 4cb1 08be 9dcb 40bf 9701 8e3e 0093 2e3e
00000340: 1cc8 6abe 1cd2 6cbe f97d 973e 0fb2 4cbe
00000350: 0ee8 023e f837 373f 457e 253e c11d acbe
00000360: 79ef 0fbe 0ba5 cabd 6c09 54be 90d8 643d
00000370: 31e2 ed3d 7736 363e f8aa b93e 97ba 393e
00000380: e3b1 28be 4d21 013d 1f75 253f 9328 f53e
00000390: 6356 e8be ec03 08be d6c8 3b3d 019b 02bf
000003a0: 20ef 613e da28 67bd ac1e 6bbf d56d 023f
000003b0: e02f 2cbe 4d0e 1c3d a761 3d3d 505e 7e3e
000003c0: 8665 003f 3c4d f23d efb4 ab3e 2711 143f
000003d0: 9688 ce3e b15f 47be d2b3 5fbf 1021 26bf
000003e0: 1d35 a7bf 37b6 f8be e71b f7bf b7ec a2bf
000003f0: 6492 e53b 0646 b93e 2ad3 e0be c91f f4bc

feature.3.bias f4 [64]
0.5183388 -0.1313482 -0.38423175 -0.30154207 -0.025976947 -0.03361949 -0.13094358 -0.19683185
-0.17356192 -0.15199742 -0.0855667 -0.8218475 -0.42046216 -0.026706042 -0.06627647 -0.1522705
-0.40725225 -0.0658911 -0.052358806 -0.2245648 -0.534512 0.30516785 -0.02886775 -0.17107832
-0.20617913 -0.009960039 -0.058863368 -0.10187329 -0.096744955 -0.056341287 -0.19184572 -0.6405991
-0.50628525 -0.39713565 -0.04042116 -0.07069061 -0.34405202 -0.11179727 -0.087377034 -0.21592088
0.23863585 -0.083658494 -0.3969765 -0.039700694 -0.08369021 -0.1108514 -0.05644868 -0.019434836
-0.116633244 -0.8173091 -0.47010267 -0.15946966 -0.3410604 -0.09136015 -0.054472644 -0.052018568
-0.2775582 -0.046517454 -0.11684815 -0.28353617 -0.010789876 -0.58269155 -0.10577507 0.051961526
00000000: dab1 043f 2480 06be 06ba c4be b963 9abe
00000010: 9bcd d4bc 97b4 09bd 1316 06be 4a8e 49be
00000020: 37ba 31be 36a5 1bbe 983d afbd 9964 52bf
00000030: d146 d7be a1c6 dabc f5bb 87bd ccec 1bbe
00000040: 5e83 d0be eaf1 86bd 3076 56bd 51f4 65be
00000050: c7d5 08bf f63e 9c3e 0f7c ecbc 282f 2fbe
00000060: 9f20 53be 6e2f 23bc b71a 71bd f2a2 d0bd
00000070: 3822 c6bd 1fc6 66bd 3473 44be 4dfe 23bf
00000080: e99b 01bf 5d55 cbbe a990 25bd 3dc6 90bd
00000090: 9627 b0be f8f5 e4bd bbf2 b2bd 5d1a 5dbe
000000a0: f55c 743e 2555 abbd 8140 cbbe 329d 22bd
000000b0: c665 abbd 0f06 e3bd bb36 67bd ce35 9fbc
000000c0: 69dd eebd 2b3b 51bf 4cb1 f0be 044c 23be
000000d0: 789f aebe 081b bbbd b51e 5fbd 6c11 55bd
000000e0: 1c1c 8ebe 1689 3ebd 154e efbd a72b 91be
000000f0: 05c8 30bc 462b 15bf 9aa0 d8bd 9cd5 543d

fatten.1.weight f4 [128, 1600]
-0.01102868 0.03383914 -0.047733534 -0.046757076 -0.097495146 -0.0015507191 0.035284616 -0.07619636
0.012897978 -0.057287533 0.002572614 -0.023936093 -0.053146977 -0.10997337 -0.08953599 -0.0153054325
-0.020895768 -0.12265345 -0.11775608 0.048961524 0.00052347186 -0.084576346 -0.08513213 -0.06044935
0.037335392 0.00030088724 0.0015104652 -0.016368717 -0.014239815 0.000112798814 -0.021889234 -0.011297929
-0.050041907 -0.038385805 0.0103111295 0.01986829 0.023368726 -0.03833239 -0.08498871 -0.05355202
0.0045319884 0.022012224 -0.079637036 -0.013377339 -0.019985372 0.015666863 0.023944775 -0.05502144
-0.019450763 -0.000736931 -0.05342021 0.04151156 0.08436802 -0.086607896 -0.063205816 0.054536037
0.057051618 0.045380462 -0.027358074 -0.10321626 -0.045968413 -0.056330305 0.051521283 0.014945075
0.0059046224 0.059082508 -0.071386315 -0.098885834 -0.049429316 0.035440564 0.0689453 -0.0554448
-0.104148306 -0.084016144 0.02477119 0.044226673 0.07025596 -0.07650588 0.07111186 -0.08383246
0.03711897 -0.075454816 -0.038922653 0.06622769 -0.06800614 0.06814969 -0.04878635 -0.074691825
0.05071065 -0.037564866 0.049659055 -0.05971027 -0.08140257 0.047276836 0.04172045 0.037638854
-0.05080239 -0.050976355 0.0675537 0.049260214 0.05360961 0.045615718 0.08033609 -0.08804777
-0.08936217 0.042569965 0.036771834 -0.023772232 -0.06433484 -0.050691225 0.050146032 -0.032405537
-0.07754823 -0.09336864 0.007416327 0.09124025 0.011542118 -0.091039345 -0.044726733 0.0023179315
0.0657198 -0.021973725 -0.049470272 -0.025267174 -0.050977983 0.01597974 0.051270403 -0.025557963
0.0108785825 -0.06776601 0.011385719 -0.053725857 -0.0706426 0.016709186 -0.0231234 0.035243478
0.034647938 -0.04104648 -0.07247003 -0.07972197 0.060715467 0.047428697 -0.054487877 -0.019048741
-0.08143728 -0.07815613 -0.048664693 -0.07666204 -0.06660911 -0.036993317 -0.0125716 -0.04390589
-0.03400146 -0.055479445 -0.076044254 -0.05248985 -0.060445588 -0.04480862 -0.059780136 -0.06128913
-0.05321784 -0.056003403 -0.08377575 -0.040556695 -0.07237743 -0.03763578 -0.06283585 -0.046080504
-0.058965664 -0.03182676 -0.043636657 -0.06813602 -0.07647568 -0.07370493 -0.06080514 0.0069431844
-0.0017567963 -0.05589621 -0.06387372 -0.061533596 0.0028993578 0.07220422 0.0491353 0.024627944
0.013409334 0.022364339 0.00749926 -0.081309 -0.04998296 -0.013709587 0.021992087 0.01781705
0.045223277 -0.014087433 0.08164732 -0.017757658 0.04655453 0.08207129 -0.060786054 -0.06742044
-0.07419375 -0.038941298 -0.025741931 -0.044132683 -0.0816935 -0.06263353 -0.041833326 -0.07461731
-0.05909541 -0.081524946 -0.054172833 -0.062277697 -0.078846894 -0.061846673 -0.0684228 -0.0355899
-0.059973016 -0.03898765 -0.07398375 -0.06760636 -0.04609556 -0.032689814 -0.07685074 -0.03474866
-0.044188354 0.018140245 -0.0013651372 -0.01668042 0.017653847 -0.008199426 0.023077015 -0.017671635
0.016098885 0.019178107 5.8686735e-05 0.012543327 -0.013803727 -0.0006080777 -0.024909062 0.00022927822
0.0028880686 0.019375805 0.012496418 -0.0090181 -0.012888903 0.012054709 0.023316646 -0.018608559
-0.011081234 -0.016711382 -0.030563487 -0.019132815 -0.017908279 -0.06677741 -0.08932269 -0.051923376
00000000: a3b1 34bc e99a 0a3d 3d84 43bd 5984 3fbd
00000010: 89ab c7bd 8041 cbba 9a86 103d d60c 9cbd
00000020: 0a52 533c 55a6 6abd 4d99 283b a015 c4bc
00000030: a5b0 59bd b839 e1bd a55e b7bd a3c3 7abc
00000040: 9a2d abbc bb31 fbbd 1a2a f1bd e18b 483d
00000050: 9a39 093a 5d36 adbd c159 aebd bd99 77bd
00000060: ffec 183d 67c0 9d39 cdfa c53a b017 86bc
00000070: 1d4e 69bc 678e ec38 0d51 b3bc f31a 39bc
00000080: bef8 4cbd 6f3a 1dbd 03f0 283c d3c2 a23c
00000090: c56f bf3c 6d02 1dbd 900e aebd 5d59 5bbd
000000a0: 1381 943b fb52 b43c be18 a3bd a02c 5bbc
000000b0: 5db8 a3bc cb57 803c d527 c43c 295e 61bd
000000c0: 3557 9fbc 9a2e 41ba 26cf 5abd 0708 2a3d
000000d0: 24c9 ac3d 7b5f b1bd 0d72 81bd 2e61 5f3d
000000e0: f5ae 693d dde0 393d 0a1e e0bc 0c63 d3bd
000000f0: 6049 3cbd 9bba 66bd fb07 533d 30dc 743c
00000100: 907b c13b 8000 723d fd32 92bd a884 cabd
00000110: 6576 4abd 202a 113d 3233 8d3d 161a 63bd
00000120: b54b d5bd a810 acbd f3ec ca3c 0727 353d
00000130: 5be2 8f3d 1daf 9cbd 18a3 913d 5ab0 abbd
00000140: 100a 183d 0e88 9abd 5c6d 1fbd 62a2 873d
00000150: ce46 8bbd 1192 8b3d 32d4 47bd 07f8 98bd
00000160: f8b5 4f3d 9edd 19bd 4b67 4b3d c292 74bd
00000170: 64b6 a6bd 5ba5 413d 10e3 2a3d 332b 1a3d
00000180: 2b16 50bd 95cc 50bd 9859 8a3d 14c5 493d
00000190: c095 5b3d 8cd7 3a3d 3f87 a43d 6452 b4bd
000001a0: 8303 b7bd d85d 2e3d 109e 163d fcbd c2bc
000001b0: fcc1 83bd 9aa1 4fbd ed65 4d3d abbb 04bd
000001c0: 9bd1 9ebd 0f38 bfbd a904 f33b 2bdc ba3d
000001d0: 271b 3d3c d672 babd 6133 37bd 70e8 173b
000001e0: 1a98 863d 3e02 b4bc 57a1 4abd 1bfd cebc
000001f0: 4ace 50bd f2e7 823c ea00 523d ef5e d1bc
00000200: 153c 323c e8c8 8abd 2b8b 3a3c a50f 5cbd
00000210: 11ad 90bd b4e1 883c 496d bdbc 775b 103d
00000220: ffea 0d3d 5b20 28bd 2b6b 94bd 4645 a3bd
00000230: c8b0 783d 9844 423d ae2e 5fbd 1b0c 9cbc
00000240: 97c8 a6bd 5210 a0bd a154 47bd fd00 9dbd
00000250: 5b6a 88bd 4e86 17bd 1df9 4dbc aad6 33bd
00000260: 1d45 0bbd 6a3e 63bd 17bd 9bbd 99ff 56bd
00000270: cb95 77bd 3e89 37bd 04dc 74bd 500a 7bbd
00000280: f3fa 59bd d363 65bd 9f92 abbd c71e 26bd
00000290: 9e3a 94bd fa27 1abd 15b0 80bd e9be 3cbd
000002a0: fb85 71bd c75c 02bd 5abc 32bd e68a 8bbd
000002b0: 489f 9cbd 9cf2 96bd cf0e 79bd a783 e33b
000002c0: 4d44 e6ba 6df3 64bd 3ad0 82bd a70a 7cbd
000002d0: 2703 3e3b cedf 933d 1942 493d 8bc0 c93c
000002e0: d3b2 5b3c 6b35 b73c 5abc f53b 5585 a6bd
000002f0: efba 4cbd 2d9e 60bc c028 b43c 10f5 913c
00000300: 0b3c 393d face 66bc b636 a73d 8278 91bc
00000310: f6af 3e3d fe14 a83d ccfa 78bd ba13 8abd
00000320: e5f2 97bd e980 1fbd bee0 d2bc 79c4 34bd
00000330: ec4e a7bd 0246 80bd 6c59 2bbd f6d0 98bd
00000340: 070e 72bd 8df6 a6bd 55e4 5dbd e616 7fbd
00000350: 7b7a a1bd f052 7dbd 4121 8cbd b7c6 11bd
00000360: 44a6 75bd 84b1 1fbd cb84 97bd 3475 8abd
00000370: b3ce 3cbd c1e5 05bd ec63 9dbd 9c54 0ebd
00000380: d9fe 34bd da9a 943c 67ee b2ba 60a5 88bc
00000390: cd9e 903c e356 06bc 020c bd3c 1bc4 90bc
000003a0: cfe1 833c 681b 9d3c 6726 7638 8782 4d3c
000003b0: 0729 62bc 6767 1fba 170e ccbc 676a 7039
000003c0: c045 3d3b 02ba 9e3c c7bd 4c3c a7c0 13bc
000003d0: fa2b 53bc 1d81 453c 8d02 bf3c fa70 98bc
000003e0: 108e 35bc 4fe6 88bc 4760 fabc 6cbc 9cbc
000003f0: 62b4 92bc 98c2 88bd d1ee b6bd 9bad 54bd

fatten.1.bias f4 [128]
-0.025308812 -0.05526479 -0.057531487 -1.3287743 -0.8621913 -0.81339914 1.5856762 -0.06796725
-0.056855835 -0.023189723 -0.00010404914 0.9015458 2.3416035 -0.0450406 -1.3927109 -1.9250518
-0.10861941 -3.0314503 -0.3030927 -0.08562268 -0.37227708 1.1206465 -0.11526677 -0.09320965
0.82589626 -3.4672663 -0.10086697 -0.8837752 -1.35822 -0.044059277 0.18196416 -0.81864923
3.5616732 -0.20248091 -0.29016212 -0.058367588 -0.50637716 -0.05469948 -0.6729304 -0.6056468
-0.06447383 -0.877868 0.0978636 0.6706105 -0.35279977 -0.90820664 -0.056360245 -0.18954088
-0.045539606 -0.6410677 0.56987417 -0.022862073 -0.09438242 -0.028336683 1.9409279 0.24249686
0.92343783 -0.4275079 0.07867221 -1.7837859 0.3650165 -0.079551496 -1.4559281 0.33409962
-0.08930864 -0.13410053 -0.065726414 -2.7217774 -0.15836053 -0.5684494 -0.9787869 -0.09576373
-3.1082306 -0.90188223 -1.669307 -3.9515684 -0.33638185 -0.95750135 0.6941222 -1.3384006
-1.5753999 0.7738685 0.8034216 -0.051387046 0.91085213 -1.4900951 -0.24309537 -2.617858
1.4142822 -2.8068242 2.598901 0.55396634 -2.5985105 -3.282441 -0.34198865 -4.28633
-3.9311419 -0.042118005 -0.4237373 -0.47496682 0.6730526 -0.0670054 -0.078326195 0.65540606
-1.7748142 -1.1982472 0.33209372 1.2701918 -2.6735609 -2.2077208 -1.4338936 -0.037017792
-0.7874951 -1.0525471 -0.17193124 -2.1459436 -0.05904444 -1.349682 -0.25839874 -1.0269443
-0.04773803 -0.14022784 -4.601592 -1.612075 -1.0194426 1.460543 3.7795594 1.4053301
00000000: 6d54 cfbc 555d 62bd 23a6 6bbd 4715 aabf
00000010: 92b8 5cbf ed3a 50bf 70f7 ca3f 6a32 8bbd
00000020: aae1 68bd 60f8 bdbc f534 dab8 b5cb 663f
00000030: d5dc 1540 7e7c 38bd 5a44 b2bf 1968 f6bf
00000040: da73 debd 4803 42c0 f72e 9bbe f25a afbd
00000050: 1a9b bebe 5871 8f3f fc10 ecbd b3e4 bebd
00000060: f06d 533f b1e7 5dc0 5893 cebd 173f 62bf
00000070: 27da adbf 8077 34bd d054 3a3e ff92 51bf
00000080: 74f2 6340 2857 4fbe 2190 94be da12 6fbd
00000090: efa1 01bf 900c 60bd 2b45 2cbf ab0b 1bbf
000000a0: db0a 84bd f5bb 60bf b66c c83d 21ad 2b3f
000000b0: 2ca2 b4be 3b80 68bf 00da 66bd 0117 42be
000000c0: bd87 3abd 031d 24bf 46e3 113f 3e49 bbbc
000000d0: 924b c1bd 5522 e8bc 5370 f83f 1951 783e
000000e0: 6c66 6c3f 51e2 dabe e51e a13d 1953 e4bf
000000f0: 71e3 ba3e e5eb a2bd da5b babf 1b0f ab3e
00000100: 73e7 b6bd a651 09be 929b 86bd 9a31 2ec0
00000110: 4329 22be e685 11bf c791 7abf c61f c4bd
00000120: 40ed 46c0 c1e1 66bf daab d5bf 7fe6 7cc0
00000130: 3e3a acbe cf1e 75bf feb1 313f b650 abbf
00000140: b4a6 c9bf 3f1c 463f 0aad 4d3f 397b 52bd
00000150: 9b2d 693f 70bb bebf feed 78be fc8a 27c0
00000160: 3307 b53f 02a3 33c0 6554 2640 bdd0 0d3f
00000170: ff4d 26c0 8313 52c0 2319 afbe 9e29 89c0
00000180: d497 7bc0 ee83 2cbd 18f4 d8be da2e f3be
00000190: 2d4d 2c3f 213a 89bd 7c69 a0bd b1c8 273f
000001a0: 1d2d e3bf 2a60 99bf 3008 aa3e a595 a23f
000001b0: 9f1b 2bc0 4c4b 0dc0 d389 b7bf f89f 17bd
000001c0: 4799 49bf ddb9 86bf be0e 30be 2457 09c0
000001d0: 95d8 71bd 61c2 acbf d74c 84be e972 83bf
000001e0: f488 43bd e397 0fbe 3e40 93c0 7958 cebf
000001f0: 187d 82bf 13f3 ba3f 4de4 7140 dbe1 b33f

fatten.3.weight f4 [10, 128]
0.0037289946 0.00013885555 0.013417964 -0.498749 -0.19687365 -0.46425313 -1.5650928 -0.031249939
0.03015884 -0.008816358 -0.1478634 -0.57553333 -0.69923514 0.010396661 -0.9812661 -0.80400455
0.033381686 -0.4857473 -0.027540112 -1.7355735 -0.39583156 -4.3920865 -0.08343981 0.09729369
0.052152943 -0.8001767 -0.081131645 0.5184792 -0.75029993 -0.10522362 0.16180685 -0.13711447
-2.289435 -0.26492417 0.39985058 0.089465246 0.77817035 -0.01763865 -0.934983 -2.1653411
0.018543672 -0.7743102 0.5502141 -1.6495448 0.112471566 -0.12028038 -0.86801034 0.011863639
-0.026735136 -0.015571602 -1.2591835 0.007935032 -0.025496388 0.013010979 0.37115416 0.06940098
1.1318831 -0.014784758 0.34924418 -0.61502546 -0.6970093 0.06394669 -1.0619256 0.70696783
-0.06516509 0.109512635 0.088406295 -0.9054583 -0.5982566 -0.8415601 -0.09673877 -0.031910833
-0.699992 -0.18253347 -0.52833223 -0.9990959 0.048230164 -1.8358474 -0.84491944 -0.017501367
-0.7825493 -2.0286334 -1.4799855 0.01177264 0.9381573 -1.2191682 -0.539383 -0.61104983
-0.78685254 0.50973445 -1.6311477 -1.0202297 -0.08785507 -0.4660828 -0.41923425 -0.6188342
-0.27671486 -0.02985172 0.6031286 -0.08143117 -0.09215132 -0.02812735 0.028748395 0.2822227
-1.8222369 -1.2856015 0.68545634 -0.051422663 -0.8031156 -0.6572944 0.8771217 0.0012776225
0.56111276 -1.4386451 0.029939052 -0.022155017 -0.017198298 0.05210089 0.09673046 -0.39804628
0.010318878 -0.03241278 0.5064451 -0.30018717 0.8025367 -0.9349961 -1.0230316 -1.9945024
0.014635127 0.012366349 0.102262534 0.54676205 -1.1978995 0.25297102 0.59867054 -0.12651579
0.050137687 -0.04286407 0.047338333 -0.43516412 0.4656854 0.009896604 1.0027547 -1.2291076
-0.0007303898 -1.3405238 -0.0018031581 -0.44351304 -1.3942596 -0.31275234 0.034990896 0.07642363
0.496182 -0.31184417 -0.0029332375 -0.74226516 -0.5555746 -0.11179959 -0.030016234 -0.088701
1.1558665 -0.19994806 1.2294381 -0.11122023 0.42297432 -0.021046558 -0.6516911 0.34382573
-0.055719607 -0.543824 0.66836447 0.5669388 -0.99533653 -0.13657336 -0.32385284 0.15316035
0.045478556 -1.2074803 0.40960872 0.08706537 -0.028336884 0.054968696 0.5984152 -1.3453046
0.15844882 0.26834214 -0.33929494 -2.9465408 -0.8517641 -0.06493532 -1.3244475 -2.5557387
-0.01144125 -0.033365723 -0.03834211 -0.8814769 -0.7268701 -1.1622407 -0.42974564 0.047203273
-0.388252 0.69823456 -0.79509073 -1.3181822 -0.13425152 0.40170562 -0.50837076 -1.1602659
-0.5962459 0.35868815 -0.554645 -0.013507099 0.071700744 -0.79808795 0.17851849 -0.24349584
-0.24830177 -1.2395396 0.61126894 0.10313282 -0.51667225 -0.15658148 -0.4110749 -1.0043062
-0.15381396 0.10849126 -1.4828919 -0.06659314 -0.23002085 -9.504457e-05 -0.04735585 0.631332
-0.064679 -0.078137346 -1.3513954 0.6964434 -0.04455445 0.1222449 -0.69626004 -0.026144296
-2.1241214 1.2410222 0.21201877 -0.59251106 0.1251116 -0.22281785 0.003219713 -0.75666404
0.0063015316 0.16139533 -0.6980978 -0.2855374 -0.29733914 0.40220752 0.79273593 0.21269798
00000000: 2662 743b c199 1139 05d7 5b3c 075c ffbe
00000010: 3f99 49be 96b2 edbe f654 c8bf dfff ffbc
00000020: ac0f f73c 7c72 10bc 8169 17be 2756 13bf
00000030: 1301 33bf c256 2a3c 4134 7bbf 3ed3 4dbf
00000040: 3cbb 083d dfb3 f8be cd9b e1bc 4627 debf
00000050: 6faa cabe f98b 8cc0 7ee2 aabd ea41 c73d
00000060: 539e 553d 61d8 4cbf 5928 a6bd 0ebb 043f
00000070: a813 40bf 7b7f d7bd b2b0 253e bc67 0cbe
00000080: 1a86 12c0 24a4 87be 37b9 cc3e 8e39 b73d
00000090: 2c36 473f ee7e 90bc 0c5b 6fbf f394 0ac0
000000a0: e6e8 973c 3139 46bf d5da 0c3f 4924 d3bf
000000b0: 7e57 e63d 8f55 f6bd ed35 5ebf b55f 423c
000000c0: a503 dbbc 0820 7fbc ed2c a1bf f001 023c
000000d0: cddd d0bc 002c 553c eb07 be3e 1a22 8e3d
000000e0: 8ce1 903f c53b 72bc 22d0 b23e 4f72 1dbf
000000f0: 346f 32bf 7bf6 823d 2eed 87bf d8fb 343f
00000100: 4675 85bd 2948 e03d 5c0e b53d 1dcc 67bf
00000110: 5827 19bf 7c70 57bf fa1e c6bd efb4 02bd
00000120: ad32 33bf 0eea 3abe c840 07bf c0c4 7fbf
00000130: fe8c 453d 0cfd eabf a44c 58bf 075f 8fbc
00000140: 2755 48bf 21d5 01c0 2a70 bdbf 08e2 403c
00000150: 142b 703f b40d 9cbf 0115 0abf c36d 1cbf
00000160: 2b6f 49bf f57d 023f 73c9 d0bf e396 82bf
00000170: 5ced b3bd 68a2 eebe dfa5 d6be eb6b 1ebf
00000180: 92ad 8dbe 988b f4bc a366 1a3f 63c5 a6bd
00000190: d5b9 bcbd 546b e6bc c181 eb3c 7e7f 903e
000001a0: 0f3f e9bf 978e a4bf 117a 2f3f 92a0 52bd
000001b0: fc98 4dbf 7244 28bf 0c8b 603f e675 a73a
000001c0: 16a5 0f3f 8625 b8bf be42 f53c 707e b5bc
000001d0: 72e3 8cbc be67 553d 9f1a c63d b9cc cbbe
000001e0: 8310 293c 43c3 04bd 63a6 013f 22b2 99be
000001f0: 0c73 4d3f e85b 6fbf b3f2 82bf db4b ffbf
00000200: 2cc8 6f3c 3a9c 4a3c 056f d13d 99f8 0b3f
00000210: c554 99bf 6b85 813e 7942 193f 5b8d 01be
00000220: 2d5d 4d3d 3c92 2fbd d7e5 413d d5cd debe
00000230: 516e ee3e 5e25 223c 445a 803f 6653 9dbf
00000240: a177 3fba 4996 abbf f257 ecba 2414 e3be
00000250: 1977 b2bf 1321 a0be 9d52 0f3d fe83 9c3d
00000260: 910b fe3e 0aaa 9fbe 8f3b 40bb 1705 3ebf
00000270: 233a 0ebf 2ff7 e4bd 9be4 f5bc dfa8 b5bd
00000280: 6ff3 933f 2fbf 4cbe 3a5e 9d3f 6fc7 e3bd
00000290: 1790 d83e d569 acbc 3ad5 26bf ed09 b03e
000002a0: 3e3a 64bd 0d38 0bbf ef19 2b3f e722 113f
000002b0: 60ce 7ebf e3d9 0bbe 0ad0 a5be 11d6 1c3e
000002c0: b947 3a3d b78e 9abf 3cb8 d13e 544f b23d
000002d0: c122 e8bc db26 613d bd31 193f f132 acbf
000002e0: 6840 223e 2464 893e 11b8 adbe 2094 3cc0
000002f0: 360d 5abf cffc 84bd 7f87 a9bf 3991 23c0
00000300: 1574 3bbc 7faa 08bd 9e0c 1dbd 78a8 61bf
00000310: 2914 3abf 4ec4 94bf 9f07 dcbe 3858 413d
00000320: f7c8 c6be 80bf 323f 118b 4bbf 32ba a8bf
00000330: 3b79 09be 5cac cd3e 9624 02bf 9883 94bf
00000340: 92a3 18bf f9a5 b73e 37fd 0dbf e14c 5dbc
00000350: d7d7 923d 7e4f 4cbf 8dcd 363e f956 79be
00000360: d242 7ebe 3ca9 9ebf 1f7c 1c3f 4d37 d33d
00000370: a244 04bf e556 20be 6978 d2be 1b8d 80bf
00000380: 6881 1dbe aa30 de3d 67cf bdbf fc61 88bd
00000390: 968a 6bbe aa52 c7b8 35f8 41bd f99e 213f
000003a0: 6c76 84bd 7906 a0bd 86fa acbf 1d4a 323f
000003b0: ba7e 36bd 895b fa3d 193e 32bf 902c d6bc
000003c0: 9bf1 07c0 d1d9 9e3f 731b 593e ceae 17bf
000003d0: 411d 003e 5d2a 64be d201 533b bcb4 41bf
000003e0: 147d ce3b d144 253e 8ab6 32bf f531 92be
000003f0: d63c 98be 25ee cd3e bef0 4a3f 80cd 593e

fatten.3.bias f4 [10]
0.9345327 1.5064445 -0.8034145 0.25375518 -1.0967435 -0.98731756 -0.34507492 0.49196357
0.8950031 -0.5828706
00000000: 893d 6f3f 2cd3 c03f 93ac 4dbf 33ec 813e
00000010: 1762 8cbf d8c0 7cbf a9ad b0be a6e2 fb3e
00000020: ec1e 653f 0237 15bf
